…
544/970 [===============>..............] - ETA: 0s
608/970 [=================>............] - ETA: 0s
672/970 [===================>..........] - ETA: 0s
736/970 [=====================>........] - ETA: 0s
800/970 [=======================>......] - ETA: 0s
864/970 [=========================>....] - ETA: 0s
928/970 [===========================>..] - ETA: 0sTest score: 0.140354430368
Test accuracy: 0.946391752332
_________________________________________________________________
Layer (type)                 Output Shape              Param #   
=================================================================
conv2d_1 (Conv2D)            (None, 22, 22, 32)        320       
_________________________________________________________________
activation_1 (Activation)    (None, 22, 22, 32)        0         
_________________________________________________________________
conv2d_2 (Conv2D)            (None, 20, 20, 24)        6936      
_________________________________________________________________
activation_2 (Activation)    (None, 20, 20, 24)        0         
_________________________________________________________________
max_pooling2d_1 (MaxPooling2 (None, 10, 10, 24)        0         
_________________________________________________________________
dropout_1 (Dropout)          (None, 10, 10, 24)        0         
_________________________________________________________________
conv2d_3 (Conv2D)            (None, 10, 10, 64)        13888     
_________________________________________________________________
activation_3 (Activation)    (None, 10, 10, 64)        0         
_________________________________________________________________
conv2d_4 (Conv2D)            (None, 8, 8, 64)          36928     
_________________________________________________________________
activation_4 (Activation)    (None, 8, 8, 64)          0         
_________________________________________________________________
max_pooling2d_2 (MaxPooling2 (None, 4, 4, 64)          0         
_________________________________________________________________
dropout_2 (Dropout)          (None, 4, 4, 64)          0         
_________________________________________________________________
flatten_1 (Flatten)          (None, 1024)              0         
_________________________________________________________________
dense_1 (Dense)              (None, 512)               524800    
_________________________________________________________________
activation_5 (Activation)    (None, 512)               0         
_________________________________________________________________
dropout_3 (Dropout)          (None, 512)               0         
_________________________________________________________________
dense_2 (Dense)              (None, 1)                 513       
_________________________________________________________________
activation_6 (Activation)    (None, 1)                 0         
=================================================================
Total params: 583,385
Trainable params: 583,385
Non-trainable params: 0
_________________________________________________________________
Eye Model Loaded as None
Training set (59, 60, 60, 1) (59, 1)
Test set (15, 60, 60, 1) (15, 1)
Optimiser Used is RMSprop!
Train on 59 samples, validate on 15 samples
Epoch 1/20
…
8s - loss: 7.6705e-04 - acc: 1.0000 - val_loss: 0.1391 - val_acc: 0.9333
Epoch 18/20
8s - loss: 0.0021 - acc: 1.0000 - val_loss: 0.1828 - val_acc: 0.9333
Epoch 19/20
8s - loss: 0.2908 - acc: 0.9322 - val_loss: 1.1213 - val_acc: 0.8000
Epoch 20/20
8s - loss: 8.8855e-04 - acc: 1.0000 - val_loss: 0.5380 - val_acc: 0.9333
 8/15 [===============>..............] - ETA: 0sTest score: 0.537981786579
Test accuracy: 0.933333333333
_________________________________________________________________
Layer (type)                 Output Shape              Param #   
=================================================================
conv2d_5 (Conv2D)            (None, 58, 58, 32)        320       
_________________________________________________________________
activation_7 (Activation)    (None, 58, 58, 32)        0         
_________________________________________________________________
conv2d_6 (Conv2D)            (None, 56, 56, 32)        9248      
_________________________________________________________________
activation_8 (Activation)    (None, 56, 56, 32)        0         
_________________________________________________________________
max_pooling2d_3 (MaxPooling2 (None, 28, 28, 32)        0         
_________________________________________________________________
dropout_4 (Dropout)          (None, 28, 28, 32)        0         
_________________________________________________________________
conv2d_7 (Conv2D)            (None, 26, 26, 64)        18496     
_________________________________________________________________
activation_9 (Activation)    (None, 26, 26, 64)        0         
_________________________________________________________________
max_pooling2d_4 (MaxPooling2 (None, 13, 13, 64)        0         
_________________________________________________________________
dropout_5 (Dropout)          (None, 13, 13, 64)        0         
_________________________________________________________________
flatten_2 (Flatten)          (None, 10816)             0         
_________________________________________________________________
dense_3 (Dense)              (None, 512)               5538304   
_________________________________________________________________
activation_10 (Activation)   (None, 512)               0         
_________________________________________________________________
dropout_6 (Dropout)          (None, 512)               0         
_________________________________________________________________
dense_4 (Dense)              (None, 1)                 513       
_________________________________________________________________
activation_11 (Activation)   (None, 1)                 0         
=================================================================
Total params: 5,566,881
Trainable params: 5,566,881
Non-trainable params: 0
_________________________________________________________________
Yawn Model Loaded as None
Total Frames: 269.0  And FPS: 30.0
Face Array: ()
Face Array: ()
Face Array: ()
Face Array: ()
Face Array: ()
Face Array: ()
Face Array: ()
Face Array: ()
…
